…
  NUM_ENSEMBLE_VIEWS: 10
  NUM_SPATIAL_CROPS: 3
  SAVE_RESULTS_PATH: 
TRAIN:
  AUTO_RESUME: True
  BATCH_SIZE: 128
  CHECKPOINT_CLEAR_NAME_PATTERN: ()
  CHECKPOINT_EPOCH_RESET: False
  CHECKPOINT_FILE_PATH: 
  CHECKPOINT_INFLATE: False
  CHECKPOINT_PERIOD: 10
  CHECKPOINT_TYPE: pytorch
  DATASET: kinetics
  ENABLE: False
  EVAL_PERIOD: 10
X3D:
  BN_LIN5: False
  BOTTLENECK_FACTOR: 2.25
  CHANNELWISE_3x3x3: True
  DEPTH_FACTOR: 2.2
  DIM_C1: 12
  DIM_C5: 2048
  SCALE_RES2: False
  WIDTH_FACTOR: 2.0
[04/04 18:09:35][INFO] misc.py: 169: Model:
X3D(
  (s1): VideoModelStem(
    (pathway0_stem): X3DStem(
      (conv_xy): Conv3d(3, 24, kernel_size=(1, 3, 3), stride=(1, 2, 2), padding=(0, 1, 1), bias=False)
      (conv): Conv3d(24, 24, kernel_size=(5, 1, 1), stride=(1, 1, 1), padding=(2, 0, 0), groups=24, bias=False)
      (bn): BatchNorm3d(24, eps=1e-05, momentum=0.1, affine=True, track_running_stats=True)
      (relu): ReLU(inplace=True)
    )
  )
  (s2): ResStage(
    (pathway0_res0): ResBlock(
      (branch1): Conv3d(24, 24, kernel_size=(1, 1, 1), stride=[1, 2, 2], bias=False)
      (branch1_bn): BatchNorm3d(24, eps=1e-05, momentum=0.1, affine=True, track_running_stats=True)
      (branch2): X3DTransform(
        (a): Conv3d(24, 54, kernel_size=[1, 1, 1], stride=[1, 1, 1], padding=[0, 0, 0], bias=False)
        (a_bn): BatchNorm3d(54, eps=1e-05, momentum=0.1, affine=True, track_running_stats=True)
        (a_relu): ReLU(inplace=True)
        (b): Conv3d(54, 54, kernel_size=[3, 3, 3], stride=[1, 2, 2], padding=[1, 1, 1], dilation=[1, 1, 1], groups=54, bias=False)
        (b_bn): BatchNorm3d(54, eps=1e-05, momentum=0.1, affine=True, track_running_stats=True)
        (se): SE(
          (avg_pool): AdaptiveAvgPool3d(output_size=(1, 1, 1))
          (fc1): Conv3d(54, 8, kernel_size=(1, 1, 1), stride=(1, 1, 1))
          (fc1_act): ReLU()
          (fc2): Conv3d(8, 54, kernel_size=(1, 1, 1), stride=(1, 1, 1))
          (fc2_sig): Sigmoid()
        )
        (b_relu): Swish()
        (c): Conv3d(54, 24, kernel_size=[1, 1, 1], stride=[1, 1, 1], padding=[0, 0, 0], bias=False)
        (c_bn): BatchNorm3d(24, eps=1e-05, momentum=0.1, affine=True, track_running_stats=True)
      )
      (relu): ReLU(inplace=True)
    )
    (pathway0_res1): ResBlock(
      (branch2): X3DTransform(
        (a): Conv3d(24, 54, kernel_size=[1, 1, 1], stride=[1, 1, 1], padding=[0, 0, 0], bias=False)
        (a_bn): BatchNorm3d(54, eps=1e-05, momentum=0.1, affine=True, track_running_stats=True)
        (a_relu): ReLU(inplace=True)
        (b): Conv3d(54, 54, kernel_size=[3, 3, 3], stride=[1, 1, 1], padding=[1, 1, 1], dilation=[1, 1, 1], groups=54, bias=False)
        (b_bn): BatchNorm3d(54, eps=1e-05, momentum=0.1, affine=True, track_running_stats=True)
        (b_relu): Swish()
        (c): Conv3d(54, 24, kernel_size=[1, 1, 1], stride=[1, 1, 1], padding=[0, 0, 0], bias=False)
        (c_bn): BatchNorm3d(24, eps=1e-05, momentum=0.1, affine=True, track_running_stats=True)
      )
      (relu): ReLU(inplace=True)
    )
    (pathway0_res2): ResBlock(
      (branch2): X3DTransform(
        (a): Conv3d(24, 54, kernel_size=[1, 1, 1], stride=[1, 1, 1], padding=[0, 0, 0], bias=False)
        (a_bn): BatchNorm3d(54, eps=1e-05, momentum=0.1, affine=True, track_running_stats=True)
        (a_relu): ReLU(inplace=True)
        (b): Conv3d(54, 54, kernel_size=[3, 3, 3], stride=[1, 1, 1], padding=[1, 1, 1], dilation=[1, 1, 1], groups=54, bias=False)
        (b_bn): BatchNorm3d(54, eps=1e-05, momentum=0.1, affine=True, track_running_stats=True)
        (se): SE(
          (avg_pool): AdaptiveAvgPool3d(output_size=(1, 1, 1))
          (fc1): Conv3d(54, 8, kernel_size=(1, 1, 1), stride=(1, 1, 1))
          (fc1_act): ReLU()
          (fc2): Conv3d(8, 54, kernel_size=(1, 1, 1), stride=(1, 1, 1))
          (fc2_sig): Sigmoid()
        )
        (b_relu): Swish()
        (c): Conv3d(54, 24, kernel_size=[1, 1, 1], stride=[1, 1, 1], padding=[0, 0, 0], bias=False)
        (c_bn): BatchNorm3d(24, eps=1e-05, momentum=0.1, affine=True, track_running_stats=True)
      )
      (relu): ReLU(inplace=True)
    )
  )
  (s3): ResStage(
    (pathway0_res0): ResBlock(
      (branch1): Conv3d(24, 48, kernel_size=(1, 1, 1), stride=[1, 2, 2], bias=False)
      (branch1_bn): BatchNorm3d(48, eps=1e-05, momentum=0.1, affine=True, track_running_stats=True)
      (branch2): X3DTransform(
        (a): Conv3d(24, 108, kernel_size=[1, 1, 1], stride=[1, 1, 1], padding=[0, 0, 0], bias=False)
        (a_bn): BatchNorm3d(108, eps=1e-05, momentum=0.1, affine=True, track_running_stats=True)
        (a_relu): ReLU(inplace=True)
        (b): Conv3d(108, 108, kernel_size=[3, 3, 3], stride=[1, 2, 2], padding=[1, 1, 1], dilation=[1, 1, 1], groups=108, bias=False)
        (b_bn): BatchNorm3d(108, eps=1e-05, momentum=0.1, affine=True, track_running_stats=True)
        (se): SE(
          (avg_pool): AdaptiveAvgPool3d(output_size=(1, 1, 1))
          (fc1): Conv3d(108, 8, kernel_size=(1, 1, 1), stride=(1, 1, 1))
          (fc1_act): ReLU()
          (fc2): Conv3d(8, 108, kernel_size=(1, 1, 1), stride=(1, 1, 1))
          (fc2_sig): Sigmoid()
        )
        (b_relu): Swish()
        (c): Conv3d(108, 48, kernel_size=[1, 1, 1], stride=[1, 1, 1], padding=[0, 0, 0], bias=False)
        (c_bn): BatchNorm3d(48, eps=1e-05, momentum=0.1, affine=True, track_running_stats=True)
      )
      (relu): ReLU(inplace=True)
    )
    (pathway0_res1): ResBlock(
      (branch2): X3DTransform(
        (a): Conv3d(48, 108, kernel_size=[1, 1, 1], stride=[1, 1, 1], padding=[0, 0, 0], bias=False)
        (a_bn): BatchNorm3d(108, eps=1e-05, momentum=0.1, affine=True, track_running_stats=True)
        (a_relu): ReLU(inplace=True)
        (b): Conv3d(108, 108, kernel_size=[3, 3, 3], stride=[1, 1, 1], padding=[1, 1, 1], dilation=[1, 1, 1], groups=108, bias=False)
        (b_bn): BatchNorm3d(108, eps=1e-05, momentum=0.1, affine=True, track_running_stats=True)
        (b_relu): Swish()
        (c): Conv3d(108, 48, kernel_size=[1, 1, 1], stride=[1, 1, 1], padding=[0, 0, 0], bias=False)
        (c_bn): BatchNorm3d(48, eps=1e-05, momentum=0.1, affine=True, track_running_stats=True)
      )
      (relu): ReLU(inplace=True)
    )
    (pathway0_res2): ResBlock(
      (branch2): X3DTransform(
        (a): Conv3d(48, 108, kernel_size=[1, 1, 1], stride=[1, 1, 1], padding=[0, 0, 0], bias=False)
        (a_bn): BatchNorm3d(108, eps=1e-05, momentum=0.1, affine=True, track_running_stats=True)
        (a_relu): ReLU(inplace=True)
        (b): Conv3d(108, 108, kernel_size=[3, 3, 3], stride=[1, 1, 1], padding=[1, 1, 1], dilation=[1, 1, 1], groups=108, bias=False)
        (b_bn): BatchNorm3d(108, eps=1e-05, momentum=0.1, affine=True, track_running_stats=True)
        (se): SE(
          (avg_pool): AdaptiveAvgPool3d(output_size=(1, 1, 1))
          (fc1): Conv3d(108, 8, kernel_size=(1, 1, 1), stride=(1, 1, 1))
          (fc1_act): ReLU()
          (fc2): Conv3d(8, 108, kernel_size=(1, 1, 1), stride=(1, 1, 1))
          (fc2_sig): Sigmoid()
        )
        (b_relu): Swish()
        (c): Conv3d(108, 48, kernel_size=[1, 1, 1], stride=[1, 1, 1], padding=[0, 0, 0], bias=False)
        (c_bn): BatchNorm3d(48, eps=1e-05, momentum=0.1, affine=True, track_running_stats=True)
      )
      (relu): ReLU(inplace=True)
    )
    (pathway0_res3): ResBlock(
      (branch2): X3DTransform(
        (a): Conv3d(48, 108, kernel_size=[1, 1, 1], stride=[1, 1, 1], padding=[0, 0, 0], bias=False)
        (a_bn): BatchNorm3d(108, eps=1e-05, momentum=0.1, affine=True, track_running_stats=True)
        (a_relu): ReLU(inplace=True)
        (b): Conv3d(108, 108, kernel_size=[3, 3, 3], stride=[1, 1, 1], padding=[1, 1, 1], dilation=[1, 1, 1], groups=108, bias=False)
        (b_bn): BatchNorm3d(108, eps=1e-05, momentum=0.1, affine=True, track_running_stats=True)
        (b_relu): Swish()
        (c): Conv3d(108, 48, kernel_size=[1, 1, 1], stride=[1, 1, 1], padding=[0, 0, 0], bias=False)
        (c_bn): BatchNorm3d(48, eps=1e-05, momentum=0.1, affine=True, track_running_stats=True)
      )
      (relu): ReLU(inplace=True)
    )
    (pathway0_res4): ResBlock(
      (branch2): X3DTransform(
        (a): Conv3d(48, 108, kernel_size=[1, 1, 1], stride=[1, 1, 1], padding=[0, 0, 0], bias=False)
        (a_bn): BatchNorm3d(108, eps=1e-05, momentum=0.1, affine=True, track_running_stats=True)
        (a_relu): ReLU(inplace=True)
        (b): Conv3d(108, 108, kernel_size=[3, 3, 3], stride=[1, 1, 1], padding=[1, 1, 1], dilation=[1, 1, 1], groups=108, bias=False)
        (b_bn): BatchNorm3d(108, eps=1e-05, momentum=0.1, affine=True, track_running_stats=True)
        (se): SE(
          (avg_pool): AdaptiveAvgPool3d(output_size=(1, 1, 1))
          (fc1): Conv3d(108, 8, kernel_size=(1, 1, 1), stride=(1, 1, 1))
          (fc1_act): ReLU()
          (fc2): Conv3d(8, 108, kernel_size=(1, 1, 1), stride=(1, 1, 1))
          (fc2_sig): Sigmoid()
        )
        (b_relu): Swish()
        (c): Conv3d(108, 48, kernel_size=[1, 1, 1], stride=[1, 1, 1], padding=[0, 0, 0], bias=False)
        (c_bn): BatchNorm3d(48, eps=1e-05, momentum=0.1, affine=True, track_running_stats=True)
      )
      (relu): ReLU(inplace=True)
    )
  )
  (s4): ResStage(
    (pathway0_res0): ResBlock(
      (branch1): Conv3d(48, 96, kernel_size=(1, 1, 1), stride=[1, 2, 2], bias=False)
      (branch1_bn): BatchNorm3d(96, eps=1e-05, momentum=0.1, affine=True, track_running_stats=True)
      (branch2): X3DTransform(
        (a): Conv3d(48, 216, kernel_size=[1, 1, 1], stride=[1, 1, 1], padding=[0, 0, 0], bias=False)
        (a_bn): BatchNorm3d(216, eps=1e-05, momentum=0.1, affine=True, track_running_stats=True)
        (a_relu): ReLU(inplace=True)
        (b): Conv3d(216, 216, kernel_size=[3, 3, 3], stride=[1, 2, 2], padding=[1, 1, 1], dilation=[1, 1, 1], groups=216, bias=False)
        (b_bn): BatchNorm3d(216, eps=1e-05, momentum=0.1, affine=True, track_running_stats=True)
        (se): SE(
          (avg_pool): AdaptiveAvgPool3d(output_size=(1, 1, 1))
          (fc1): Conv3d(216, 16, kernel_size=(1, 1, 1), stride=(1, 1, 1))
          (fc1_act): ReLU()
          (fc2): Conv3d(16, 216, kernel_size=(1, 1, 1), stride=(1, 1, 1))
          (fc2_sig): Sigmoid()
        )
        (b_relu): Swish()
        (c): Conv3d(216, 96, kernel_size=[1, 1, 1], stride=[1, 1, 1], padding=[0, 0, 0], bias=False)
        (c_bn): BatchNorm3d(96, eps=1e-05, momentum=0.1, affine=True, track_running_stats=True)
      )
      (relu): ReLU(inplace=True)
    )
    (pathway0_res1): ResBlock(
      (branch2): X3DTransform(
        (a): Conv3d(96, 216, kernel_size=[1, 1, 1], stride=[1, 1, 1], padding=[0, 0, 0], bias=False)
        (a_bn): BatchNorm3d(216, eps=1e-05, momentum=0.1, affine=True, track_running_stats=True)
        (a_relu): ReLU(inplace=True)
        (b): Conv3d(216, 216, kernel_size=[3, 3, 3], stride=[1, 1, 1], padding=[1, 1, 1], dilation=[1, 1, 1], groups=216, bias=False)
        (b_bn): BatchNorm3d(216, eps=1e-05, momentum=0.1, affine=True, track_running_stats=True)
        (b_relu): Swish()
        (c): Conv3d(216, 96, kernel_size=[1, 1, 1], stride=[1, 1, 1], padding=[0, 0, 0], bias=False)
        (c_bn): BatchNorm3d(96, eps=1e-05, momentum=0.1, affine=True, track_running_stats=True)
      )
      (relu): ReLU(inplace=True)
    )
    (pathway0_res2): ResBlock(
      (branch2): X3DTransform(
        (a): Conv3d(96, 216, kernel_size=[1, 1, 1], stride=[1, 1, 1], padding=[0, 0, 0], bias=False)
        (a_bn): BatchNorm3d(216, eps=1e-05, momentum=0.1, affine=True, track_running_stats=True)
        (a_relu): ReLU(inplace=True)
        (b): Conv3d(216, 216, kernel_size=[3, 3, 3], stride=[1, 1, 1], padding=[1, 1, 1], dilation=[1, 1, 1], groups=216, bias=False)
        (b_bn): BatchNorm3d(216, eps=1e-05, momentum=0.1, affine=True, track_running_stats=True)
        (se): SE(
          (avg_pool): AdaptiveAvgPool3d(output_size=(1, 1, 1))
          (fc1): Conv3d(216, 16, kernel_size=(1, 1, 1), stride=(1, 1, 1))
          (fc1_act): ReLU()
          (fc2): Conv3d(16, 216, kernel_size=(1, 1, 1), stride=(1, 1, 1))
          (fc2_sig): Sigmoid()
        )
        (b_relu): Swish()
        (c): Conv3d(216, 96, kernel_size=[1, 1, 1], stride=[1, 1, 1], padding=[0, 0, 0], bias=False)
        (c_bn): BatchNorm3d(96, eps=1e-05, momentum=0.1, affine=True, track_running_stats=True)
      )
      (relu): ReLU(inplace=True)
    )
    (pathway0_res3): ResBlock(
      (branch2): X3DTransform(
        (a): Conv3d(96, 216, kernel_size=[1, 1, 1], stride=[1, 1, 1], padding=[0, 0, 0], bias=False)
        (a_bn): BatchNorm3d(216, eps=1e-05, momentum=0.1, affine=True, track_running_stats=True)
        (a_relu): ReLU(inplace=True)
        (b): Conv3d(216, 216, kernel_size=[3, 3, 3], stride=[1, 1, 1], padding=[1, 1, 1], dilation=[1, 1, 1], groups=216, bias=False)
        (b_bn): BatchNorm3d(216, eps=1e-05, momentum=0.1, affine=True, track_running_stats=True)
        (b_relu): Swish()
        (c): Conv3d(216, 96, kernel_size=[1, 1, 1], stride=[1, 1, 1], padding=[0, 0, 0], bias=False)
        (c_bn): BatchNorm3d(96, eps=1e-05, momentum=0.1, affine=True, track_running_stats=True)
      )
      (relu): ReLU(inplace=True)
    )
    (pathway0_res4): ResBlock(
      (branch2): X3DTransform(
        (a): Conv3d(96, 216, kernel_size=[1, 1, 1], stride=[1, 1, 1], padding=[0, 0, 0], bias=False)
        (a_bn): BatchNorm3d(216, eps=1e-05, momentum=0.1, affine=True, track_running_stats=True)
        (a_relu): ReLU(inplace=True)
        (b): Conv3d(216, 216, kernel_size=[3, 3, 3], stride=[1, 1, 1], padding=[1, 1, 1], dilation=[1, 1, 1], groups=216, bias=False)
        (b_bn): BatchNorm3d(216, eps=1e-05, momentum=0.1, affine=True, track_running_stats=True)
        (se): SE(
          (avg_pool): AdaptiveAvgPool3d(output_size=(1, 1, 1))
          (fc1): Conv3d(216, 16, kernel_size=(1, 1, 1), stride=(1, 1, 1))
          (fc1_act): ReLU()
          (fc2): Conv3d(16, 216, kernel_size=(1, 1, 1), stride=(1, 1, 1))
          (fc2_sig): Sigmoid()
        )
        (b_relu): Swish()
        (c): Conv3d(216, 96, kernel_size=[1, 1, 1], stride=[1, 1, 1], padding=[0, 0, 0], bias=False)
        (c_bn): BatchNorm3d(96, eps=1e-05, momentum=0.1, affine=True, track_running_stats=True)
      )
      (relu): ReLU(inplace=True)
    )
    (pathway0_res5): ResBlock(
      (branch2): X3DTransform(
        (a): Conv3d(96, 216, kernel_size=[1, 1, 1], stride=[1, 1, 1], padding=[0, 0, 0], bias=False)
        (a_bn): BatchNorm3d(216, eps=1e-05, momentum=0.1, affine=True, track_running_stats=True)
        (a_relu): ReLU(inplace=True)
        (b): Conv3d(216, 216, kernel_size=[3, 3, 3], stride=[1, 1, 1], padding=[1, 1, 1], dilation=[1, 1, 1], groups=216, bias=False)
        (b_bn): BatchNorm3d(216, eps=1e-05, momentum=0.1, affine=True, track_running_stats=True)
        (b_relu): Swish()
        (c): Conv3d(216, 96, kernel_size=[1, 1, 1], stride=[1, 1, 1], padding=[0, 0, 0], bias=False)
        (c_bn): BatchNorm3d(96, eps=1e-05, momentum=0.1, affine=True, track_running_stats=True)
      )
      (relu): ReLU(inplace=True)
    )
    (pathway0_res6): ResBlock(
      (branch2): X3DTransform(
        (a): Conv3d(96, 216, kernel_size=[1, 1, 1], stride=[1, 1, 1], padding=[0, 0, 0], bias=False)
        (a_bn): BatchNorm3d(216, eps=1e-05, momentum=0.1, affine=True, track_running_stats=True)
        (a_relu): ReLU(inplace=True)
        (b): Conv3d(216, 216, kernel_size=[3, 3, 3], stride=[1, 1, 1], padding=[1, 1, 1], dilation=[1, 1, 1], groups=216, bias=False)
        (b_bn): BatchNorm3d(216, eps=1e-05, momentum=0.1, affine=True, track_running_stats=True)
        (se): SE(
          (avg_pool): AdaptiveAvgPool3d(output_size=(1, 1, 1))
          (fc1): Conv3d(216, 16, kernel_size=(1, 1, 1), stride=(1, 1, 1))
          (fc1_act): ReLU()
          (fc2): Conv3d(16, 216, kernel_size=(1, 1, 1), stride=(1, 1, 1))
          (fc2_sig): Sigmoid()
        )
        (b_relu): Swish()
        (c): Conv3d(216, 96, kernel_size=[1, 1, 1], stride=[1, 1, 1], padding=[0, 0, 0], bias=False)
        (c_bn): BatchNorm3d(96, eps=1e-05, momentum=0.1, affine=True, track_running_stats=True)
      )
      (relu): ReLU(inplace=True)
    )
    (pathway0_res7): ResBlock(
      (branch2): X3DTransform(
        (a): Conv3d(96, 216, kernel_size=[1, 1, 1], stride=[1, 1, 1], padding=[0, 0, 0], bias=False)
        (a_bn): BatchNorm3d(216, eps=1e-05, momentum=0.1, affine=True, track_running_stats=True)
        (a_relu): ReLU(inplace=True)
        (b): Conv3d(216, 216, kernel_size=[3, 3, 3], stride=[1, 1, 1], padding=[1, 1, 1], dilation=[1, 1, 1], groups=216, bias=False)
        (b_bn): BatchNorm3d(216, eps=1e-05, momentum=0.1, affine=True, track_running_stats=True)
        (b_relu): Swish()
        (c): Conv3d(216, 96, kernel_size=[1, 1, 1], stride=[1, 1, 1], padding=[0, 0, 0], bias=False)
        (c_bn): BatchNorm3d(96, eps=1e-05, momentum=0.1, affine=True, track_running_stats=True)
      )
      (relu): ReLU(inplace=True)
    )
    (pathway0_res8): ResBlock(
      (branch2): X3DTransform(
        (a): Conv3d(96, 216, kernel_size=[1, 1, 1], stride=[1, 1, 1], padding=[0, 0, 0], bias=False)
        (a_bn): BatchNorm3d(216, eps=1e-05, momentum=0.1, affine=True, track_running_stats=True)
        (a_relu): ReLU(inplace=True)
        (b): Conv3d(216, 216, kernel_size=[3, 3, 3], stride=[1, 1, 1], padding=[1, 1, 1], dilation=[1, 1, 1], groups=216, bias=False)
        (b_bn): BatchNorm3d(216, eps=1e-05, momentum=0.1, affine=True, track_running_stats=True)
        (se): SE(
          (avg_pool): AdaptiveAvgPool3d(output_size=(1, 1, 1))
          (fc1): Conv3d(216, 16, kernel_size=(1, 1, 1), stride=(1, 1, 1))
          (fc1_act): ReLU()
          (fc2): Conv3d(16, 216, kernel_size=(1, 1, 1), stride=(1, 1, 1))
          (fc2_sig): Sigmoid()
        )
        (b_relu): Swish()
        (c): Conv3d(216, 96, kernel_size=[1, 1, 1], stride=[1, 1, 1], padding=[0, 0, 0], bias=False)
        (c_bn): BatchNorm3d(96, eps=1e-05, momentum=0.1, affine=True, track_running_stats=True)
      )
      (relu): ReLU(inplace=True)
    )
    (pathway0_res9): ResBlock(
      (branch2): X3DTransform(
        (a): Conv3d(96, 216, kernel_size=[1, 1, 1], stride=[1, 1, 1], padding=[0, 0, 0], bias=False)
        (a_bn): BatchNorm3d(216, eps=1e-05, momentum=0.1, affine=True, track_running_stats=True)
        (a_relu): ReLU(inplace=True)
        (b): Conv3d(216, 216, kernel_size=[3, 3, 3], stride=[1, 1, 1], padding=[1, 1, 1], dilation=[1, 1, 1], groups=216, bias=False)
        (b_bn): BatchNorm3d(216, eps=1e-05, momentum=0.1, affine=True, track_running_stats=True)
        (b_relu): Swish()
        (c): Conv3d(216, 96, kernel_size=[1, 1, 1], stride=[1, 1, 1], padding=[0, 0, 0], bias=False)
        (c_bn): BatchNorm3d(96, eps=1e-05, momentum=0.1, affine=True, track_running_stats=True)
      )
      (relu): ReLU(inplace=True)
    )
    (pathway0_res10): ResBlock(
      (branch2): X3DTransform(
        (a): Conv3d(96, 216, kernel_size=[1, 1, 1], stride=[1, 1, 1], padding=[0, 0, 0], bias=False)
        (a_bn): BatchNorm3d(216, eps=1e-05, momentum=0.1, affine=True, track_running_stats=True)
        (a_relu): ReLU(inplace=True)
        (b): Conv3d(216, 216, kernel_size=[3, 3, 3], stride=[1, 1, 1], padding=[1, 1, 1], dilation=[1, 1, 1], groups=216, bias=False)
        (b_bn): BatchNorm3d(216, eps=1e-05, momentum=0.1, affine=True, track_running_stats=True)
        (se): SE(
          (avg_pool): AdaptiveAvgPool3d(output_size=(1, 1, 1))
          (fc1): Conv3d(216, 16, kernel_size=(1, 1, 1), stride=(1, 1, 1))
          (fc1_act): ReLU()
          (fc2): Conv3d(16, 216, kernel_size=(1, 1, 1), stride=(1, 1, 1))
          (fc2_sig): Sigmoid()
        )
        (b_relu): Swish()
        (c): Conv3d(216, 96, kernel_size=[1, 1, 1], stride=[1, 1, 1], padding=[0, 0, 0], bias=False)
        (c_bn): BatchNorm3d(96, eps=1e-05, momentum=0.1, affine=True, track_running_stats=True)
      )
      (relu): ReLU(inplace=True)
    )
  )
  (s5): ResStage(
    (pathway0_res0): ResBlock(
      (branch1): Conv3d(96, 192, kernel_size=(1, 1, 1), stride=[1, 2, 2], bias=False)
      (branch1_bn): BatchNorm3d(192, eps=1e-05, momentum=0.1, affine=True, track_running_stats=True)
      (branch2): X3DTransform(
        (a): Conv3d(96, 432, kernel_size=[1, 1, 1], stride=[1, 1, 1], padding=[0, 0, 0], bias=False)
        (a_bn): BatchNorm3d(432, eps=1e-05, momentum=0.1, affine=True, track_running_stats=True)
        (a_relu): ReLU(inplace=True)
        (b): Conv3d(432, 432, kernel_size=[3, 3, 3], stride=[1, 2, 2], padding=[1, 1, 1], dilation=[1, 1, 1], groups=432, bias=False)
        (b_bn): BatchNorm3d(432, eps=1e-05, momentum=0.1, affine=True, track_running_stats=True)
        (se): SE(
          (avg_pool): AdaptiveAvgPool3d(output_size=(1, 1, 1))
          (fc1): Conv3d(432, 32, kernel_size=(1, 1, 1), stride=(1, 1, 1))
          (fc1_act): ReLU()
          (fc2): Conv3d(32, 432, kernel_size=(1, 1, 1), stride=(1, 1, 1))
          (fc2_sig): Sigmoid()
        )
        (b_relu): Swish()
        (c): Conv3d(432, 192, kernel_size=[1, 1, 1], stride=[1, 1, 1], padding=[0, 0, 0], bias=False)
        (c_bn): BatchNorm3d(192, eps=1e-05, momentum=0.1, affine=True, track_running_stats=True)
      )
      (relu): ReLU(inplace=True)
    )
    (pathway0_res1): ResBlock(
      (branch2): X3DTransform(
        (a): Conv3d(192, 432, kernel_size=[1, 1, 1], stride=[1, 1, 1], padding=[0, 0, 0], bias=False)
        (a_bn): BatchNorm3d(432, eps=1e-05, momentum=0.1, affine=True, track_running_stats=True)
        (a_relu): ReLU(inplace=True)
        (b): Conv3d(432, 432, kernel_size=[3, 3, 3], stride=[1, 1, 1], padding=[1, 1, 1], dilation=[1, 1, 1], groups=432, bias=False)
        (b_bn): BatchNorm3d(432, eps=1e-05, momentum=0.1, affine=True, track_running_stats=True)
        (b_relu): Swish()
        (c): Conv3d(432, 192, kernel_size=[1, 1, 1], stride=[1, 1, 1], padding=[0, 0, 0], bias=False)
        (c_bn): BatchNorm3d(192, eps=1e-05, momentum=0.1, affine=True, track_running_stats=True)
      )
      (relu): ReLU(inplace=True)
    )
    (pathway0_res2): ResBlock(
      (branch2): X3DTransform(
        (a): Conv3d(192, 432, kernel_size=[1, 1, 1], stride=[1, 1, 1], padding=[0, 0, 0], bias=False)
        (a_bn): BatchNorm3d(432, eps=1e-05, momentum=0.1, affine=True, track_running_stats=True)
        (a_relu): ReLU(inplace=True)
        (b): Conv3d(432, 432, kernel_size=[3, 3, 3], stride=[1, 1, 1], padding=[1, 1, 1], dilation=[1, 1, 1], groups=432, bias=False)
        (b_bn): BatchNorm3d(432, eps=1e-05, momentum=0.1, affine=True, track_running_stats=True)
        (se): SE(
          (avg_pool): AdaptiveAvgPool3d(output_size=(1, 1, 1))
          (fc1): Conv3d(432, 32, kernel_size=(1, 1, 1), stride=(1, 1, 1))
          (fc1_act): ReLU()
          (fc2): Conv3d(32, 432, kernel_size=(1, 1, 1), stride=(1, 1, 1))
          (fc2_sig): Sigmoid()
        )
        (b_relu): Swish()
        (c): Conv3d(432, 192, kernel_size=[1, 1, 1], stride=[1, 1, 1], padding=[0, 0, 0], bias=False)
        (c_bn): BatchNorm3d(192, eps=1e-05, momentum=0.1, affine=True, track_running_stats=True)
      )
      (relu): ReLU(inplace=True)
    )
    (pathway0_res3): ResBlock(
      (branch2): X3DTransform(
        (a): Conv3d(192, 432, kernel_size=[1, 1, 1], stride=[1, 1, 1], padding=[0, 0, 0], bias=False)
        (a_bn): BatchNorm3d(432, eps=1e-05, momentum=0.1, affine=True, track_running_stats=True)
        (a_relu): ReLU(inplace=True)
        (b): Conv3d(432, 432, kernel_size=[3, 3, 3], stride=[1, 1, 1], padding=[1, 1, 1], dilation=[1, 1, 1], groups=432, bias=False)
        (b_bn): BatchNorm3d(432, eps=1e-05, momentum=0.1, affine=True, track_running_stats=True)
        (b_relu): Swish()
        (c): Conv3d(432, 192, kernel_size=[1, 1, 1], stride=[1, 1, 1], padding=[0, 0, 0], bias=False)
        (c_bn): BatchNorm3d(192, eps=1e-05, momentum=0.1, affine=True, track_running_stats=True)
      )
      (relu): ReLU(inplace=True)
    )
    (pathway0_res4): ResBlock(
      (branch2): X3DTransform(
        (a): Conv3d(192, 432, kernel_size=[1, 1, 1], stride=[1, 1, 1], padding=[0, 0, 0], bias=False)
        (a_bn): BatchNorm3d(432, eps=1e-05, momentum=0.1, affine=True, track_running_stats=True)
        (a_relu): ReLU(inplace=True)
        (b): Conv3d(432, 432, kernel_size=[3, 3, 3], stride=[1, 1, 1], padding=[1, 1, 1], dilation=[1, 1, 1], groups=432, bias=False)
        (b_bn): BatchNorm3d(432, eps=1e-05, momentum=0.1, affine=True, track_running_stats=True)
        (se): SE(
          (avg_pool): AdaptiveAvgPool3d(output_size=(1, 1, 1))
          (fc1): Conv3d(432, 32, kernel_size=(1, 1, 1), stride=(1, 1, 1))
          (fc1_act): ReLU()
          (fc2): Conv3d(32, 432, kernel_size=(1, 1, 1), stride=(1, 1, 1))
          (fc2_sig): Sigmoid()
        )
        (b_relu): Swish()
        (c): Conv3d(432, 192, kernel_size=[1, 1, 1], stride=[1, 1, 1], padding=[0, 0, 0], bias=False)
        (c_bn): BatchNorm3d(192, eps=1e-05, momentum=0.1, affine=True, track_running_stats=True)
      )
      (relu): ReLU(inplace=True)
    )
    (pathway0_res5): ResBlock(
      (branch2): X3DTransform(
        (a): Conv3d(192, 432, kernel_size=[1, 1, 1], stride=[1, 1, 1], padding=[0, 0, 0], bias=False)
        (a_bn): BatchNorm3d(432, eps=1e-05, momentum=0.1, affine=True, track_running_stats=True)
        (a_relu): ReLU(inplace=True)
        (b): Conv3d(432, 432, kernel_size=[3, 3, 3], stride=[1, 1, 1], padding=[1, 1, 1], dilation=[1, 1, 1], groups=432, bias=False)
        (b_bn): BatchNorm3d(432, eps=1e-05, momentum=0.1, affine=True, track_running_stats=True)
        (b_relu): Swish()
        (c): Conv3d(432, 192, kernel_size=[1, 1, 1], stride=[1, 1, 1], padding=[0, 0, 0], bias=False)
        (c_bn): BatchNorm3d(192, eps=1e-05, momentum=0.1, affine=True, track_running_stats=True)
      )
      (relu): ReLU(inplace=True)
    )
    (pathway0_res6): ResBlock(
      (branch2): X3DTransform(
        (a): Conv3d(192, 432, kernel_size=[1, 1, 1], stride=[1, 1, 1], padding=[0, 0, 0], bias=False)
        (a_bn): BatchNorm3d(432, eps=1e-05, momentum=0.1, affine=True, track_running_stats=True)
        (a_relu): ReLU(inplace=True)
        (b): Conv3d(432, 432, kernel_size=[3, 3, 3], stride=[1, 1, 1], padding=[1, 1, 1], dilation=[1, 1, 1], groups=432, bias=False)
        (b_bn): BatchNorm3d(432, eps=1e-05, momentum=0.1, affine=True, track_running_stats=True)
        (se): SE(
          (avg_pool): AdaptiveAvgPool3d(output_size=(1, 1, 1))
          (fc1): Conv3d(432, 32, kernel_size=(1, 1, 1), stride=(1, 1, 1))
          (fc1_act): ReLU()
          (fc2): Conv3d(32, 432, kernel_size=(1, 1, 1), stride=(1, 1, 1))
          (fc2_sig): Sigmoid()
        )
        (b_relu): Swish()
        (c): Conv3d(432, 192, kernel_size=[1, 1, 1], stride=[1, 1, 1], padding=[0, 0, 0], bias=False)
        (c_bn): BatchNorm3d(192, eps=1e-05, momentum=0.1, affine=True, track_running_stats=True)
      )
      (relu): ReLU(inplace=True)
    )
  )
  (head): X3DHead(
    (conv_5): Conv3d(192, 432, kernel_size=(1, 1, 1), stride=(1, 1, 1), bias=False)
    (conv_5_bn): BatchNorm3d(432, eps=1e-05, momentum=0.1, affine=True, track_running_stats=True)
    (conv_5_relu): ReLU(inplace=True)
    (avg_pool): AvgPool3d(kernel_size=[4, 5, 5], stride=1, padding=0)
    (lin_5): Conv3d(432, 2048, kernel_size=(1, 1, 1), stride=(1, 1, 1), bias=False)
    (lin_5_relu): ReLU(inplace=True)
    (dropout): Dropout(p=0.5, inplace=False)
    (projection): Linear(in_features=2048, out_features=400, bias=True)
    (act): Softmax(dim=4)
  )
)
[04/04 18:09:35][INFO] misc.py: 170: Params: 3,794,322
[04/04 18:09:35][INFO] misc.py: 171: Mem: 0.014384746551513672 MB
[04/04 18:09:36][WARNING] jit_analysis.py: 484: Unsupported operator aten::adaptive_avg_pool3d encountered 15 time(s)
[04/04 18:09:36][WARNING] jit_analysis.py: 484: Unsupported operator aten::sigmoid encountered 15 time(s)
…
